lidsnet_model.pt (torch, 411869 bytes, 6 tensors)

model.0.weight f4 [256, 268]
000000 12 cf c4 bc 28 e7 4c bd fa 4c 4f 3d d3 1e 64 bd
       -0.02402452 -0.050025135 0.05061052 -0.05569346
000010 ba 37 b1 3c 25 58 05 bd 0d 53 0f 3b 8b 78 a3 bc
       0.021633018 -0.032554764 0.002186957 -0.01995494
000020 e3 42 31 3b 1c 1e 49 3d 0e c0 5d 3a bb 67 b3 b8
       0.0027047924 0.04910098 0.00084590993 -8.5547064e-05
000030 79 af 09 3d 24 10 23 bd 67 94 76 bd 51 17 e3 bb
       0.03361461 -0.039810315 -0.06020012 -0.0069302698
000040 0f c4 2e bb 1e 3d bc bc 3d 7f 1b 3d fa 5d 61 bd
       -0.0026667153 -0.022978362 0.03796314 -0.055021264
000050 8c 73 49 3d 17 fd c2 3c 8b 42 6e bd a2 ae 99 bc
       0.04918246 0.023802323 -0.05816893 -0.01876003
000060 f8 e5 42 bc 06 fc 36 3c df 30 a5 bd c5 7f c1 3c
       -0.011895649 0.0111684855 -0.08065962 0.023620496
000070 0d 40 01 3d 1a c9 6f bd 76 11 6b bd 0d b5 c2 3c
       0.031555224 -0.058541395 -0.0573897 0.023767972
000080 55 1b 81 3d 3a 0e 35 3c bc 11 f6 bb 5d 73 69 3c
       0.06304041 0.011050755 -0.0075094383 0.014248696
000090 8e 87 b2 3c 6b 20 0c 3c f2 37 a5 bd 6f 7a 15 3d
       0.021793153 0.008552651 -0.08067311 0.036493715
0000a0 fa d4 bb 3d 74 97 61 3d 3f af 9d 3d f5 1a df 3b
       0.091714814 0.055076078 0.07699441 0.0068086335
0000b0 17 67 0d 3d 8d b4 81 3a 8b 62 11 bd c7 ef 2a bc
       0.034522142 0.0009895727 -0.03549437 -0.010433144
0000c0 f0 d7 4e bd 8f cd 81 3c bb dc 47 bd fc fa 11 bc
       -0.050498903 0.015845088 -0.04879449 -0.008909937
0000d0 a1 4c 09 3d 76 9c c3 3a 80 dd 9c bc de 2c a9 bc
       0.033520345 0.0014923948 -0.019148588 -0.020651277
0000e0 32 c2 c3 3c 0f f8 06 3d 82 9a 21 bd f1 03 d8 bc
       0.02389631 0.03295141 -0.03945399 -0.026369067
0000f0 24 cd 76 3b 5d d0 47 3c f8 55 8a 3c 79 5d 78 bc
       0.0037658894 0.012195674 0.016886696 -0.015159004
000100 ad ae 4d bc 60 41 95 bb 4b 52 ce 3d 18 8e 56 bb
       -0.012553853 -0.0045549124 0.1007429 -0.0032738503
000110 d0 2f 45 3d f7 42 0f 3c 33 51 99 bd b0 99 16 3d
       0.0481413 0.008743993 -0.07486191 0.03676766
000120 12 c2 95 3c 6d d3 09 3b 91 01 3c bd bf b6 c1 bd
       0.018281016 0.002103056 -0.04589993 -0.09458684
000130 c9 e8 7a 3d 86 92 5c bd 57 7c eb 3c 8f 4f e0 bc
       0.061257157 -0.053850673 0.028745813 -0.027381686
000140 5f 18 1f 3d 61 cf 6a 3d 2e 32 49 bd 74 9a be bc
       0.0388416 0.05732668 -0.04912012 -0.023267008
000150 e2 ea 04 3d 84 13 f2 bc 32 51 9a bc 4a 29 63 bd
       0.032450564 -0.029550321 -0.018837545 -0.0554593
000160 50 da 27 bd b6 15 cc 3d fc d4 bf 3d 47 d3 39 3d
       -0.040979683 0.099650785 0.093667954 0.045367505
000170 f0 8d 4d bc fb 96 9a 3b 8d 51 48 3d ec a0 33 bc
       -0.012546048 0.0047177053 0.048905898 -0.01096366
000180 e8 de c4 3c e1 a9 38 3d 93 51 6d bd e9 e5 91 3c
       0.024032071 0.045083884 -0.057939123 0.017809825
000190 35 c4 4a 3d 0f 2c c4 bc 99 69 31 3c 96 b4 b3 bc
       0.049503524 -0.02394679 0.010828399 -0.021936696
0001a0 98 27 6e bc 25 1b f3 3c 08 58 3c bd b5 f2 fb 3c
       -0.014535807 0.02967603 -0.04598239 0.03075538
0001b0 7c 94 a9 bd 64 1f 31 3c c3 f3 5e bb 43 82 b1 3c
       -0.08280274 0.010810707 -0.0034019805 0.021668559
0001c0 77 43 15 bd bc a1 d9 bc 54 f6 99 bd f3 a5 0c bd
       -0.036441293 -0.026566379 -0.075176865 -0.03433795
0001d0 f0 50 99 bc 6a 42 41 bd da da ac bc 47 41 4a bd
       -0.018715352 -0.047182478 -0.02110045 -0.04937866
0001e0 e5 66 9b 3c cf bc 94 bd 56 34 51 3d e9 7e 0a bb
       0.018969962 -0.07262575 0.051075302 -0.0021132773
0001f0 c7 55 05 3d 7b e0 89 bd 58 4a 40 bd 3f 93 ec bc
       0.032552507 -0.067322694 -0.0469459 -0.028878806
000200 7a 60 20 3b e9 ef ef 3b 2d 4e a0 3d 06 2b 3f 3d
       0.0024471567 0.0073223007 0.07827411 0.04667189
000210 08 49 3a bc b2 26 b8 3c 76 6a a1 bd a0 eb 79 3d
       -0.011369951 0.022479389 -0.07881634 0.061015725
000220 57 34 5a bd 1c 60 30 3c 15 ba 53 3c 1a 05 b0 bc
       -0.05327257 0.010765102 0.012922783 -0.021486808
000230 13 3f b7 bc 29 cc d1 3c 23 04 04 3d 7c 83 0f bd
       -0.022368943 0.025610046 0.032230508 -0.035037503
000240 54 01 1a 3d 88 de e6 3b 13 a3 1d bd e1 2f 07 3d
       0.037598923 0.0070455708 -0.038485598 0.033004645
000250 ab 02 4b bd e4 63 54 3d 6a 78 de 3d 54 36 4e 3d
       -0.04956309 0.051853076 0.10862811 0.05034478
000260 4a 84 02 bd ca ca 48 3d e1 ad 3a 3d df 76 db bb
       -0.031864442 0.04902152 0.04557598 -0.00669752
000270 1e 4e 0a 3c 12 fe c2 bc 99 6c 3e bd c8 ed cb bc
       0.008441476 -0.02380279 -0.046490286 -0.024893656
000280 aa fe de bc ca 3d d8 bb de ea f8 3b c1 d6 96 3d
       -0.027221043 -0.0065991627 0.0075963577 0.0736518
000290 ee b9 7b 3b 32 c5 74 3d be 41 b9 3c ba 5c 03 bd
       0.0038410383 0.059758373 0.022614356 -0.032070853
0002a0 44 bb 21 3d 08 63 3b 3c a9 9f e0 3c 34 bb ca bc
       0.03948523 0.011437185 0.027419882 -0.024747469
0002b0 5f b6 9c 3c ad d5 82 3c 24 c3 04 3d 64 9b 01 bd
       0.01912993 0.01597103 0.032412663 -0.031642333
0002c0 37 f4 03 bd a5 02 39 bd 97 0c 87 3d 77 93 5a bd
       -0.032215323 -0.045168538 0.06594198 -0.05336329
0002d0 44 3c 21 bc 1d c9 0a 3c af a4 ed 3c 3a 57 36 bd
       -0.009841029 0.008470801 0.029009191 -0.04451678
0002e0 08 6c 62 bd 33 c3 1a bd 1a d1 85 bd 8d 86 d9 3c
       -0.055278808 -0.037783813 -0.065340236 0.026553417
0002f0 58 7e b1 bc 24 bb c6 bc 0e ba 9b 3d ec ae 7c bd
       -0.02166669 -0.024259157 0.076038465 -0.061690256
000300 70 d4 2b bd 2c bc 27 bd fa 7c 74 bd 3a 1a 00 3d
       -0.041950643 -0.04095094 -0.0596895 0.03127501
000310 2c b2 8e 3b 7c 81 74 bd 60 d7 6b bd c8 1d 36 3c
       0.004354736 -0.0596938 -0.057578444 0.011115499
000320 3a 89 87 bc c5 1c a0 bc 31 cb 3d bd a1 d1 50 bd
       -0.016544927 -0.019544968 -0.046336357 -0.050981168
000330 2c 61 78 3b c4 fb 31 3c 86 fb 90 3c 3c 18 1c 3b
       0.0037899716 0.010863248 0.01769806 0.0023818156
000340 bc d0 84 bd 6a 4a da bc 43 b2 02 bc c3 e9 61 bd
       -0.064851254 -0.026646812 -0.007977071 -0.055154573
000350 2e b6 a3 3d d7 0f 83 bb 3b e6 85 3b 91 f8 99 bc
       0.079937324 -0.003999691 0.0040862835 -0.018795284
000360 22 3b f3 3c a5 47 f2 3d 0f 19 11 bb 6c 98 c2 bc
       0.029691283 0.11830071 -0.002214018 -0.023754321
000370 17 b4 82 bd 3f cb ab 3d a2 f3 7d 3d c0 b9 ae 3c
       -0.06382006 0.083883755 0.061999924 0.021328807
000380 db 61 3a bc 51 41 3e 3d 85 fe 48 bd 92 07 71 3d
       -0.01137587 0.04644901 -0.049070854 0.05884511
000390 19 58 68 3c f4 03 0e bc 85 17 35 bb e1 e8 71 bd
       0.01418116 -0.008667935 -0.0027632427 -0.05905998
0003a0 e9 bd 22 bd a2 f9 cb bc ce 99 4e bd 96 5e b5 3c
       -0.039731894 -0.024899308 -0.05043965 0.022139829
0003b0 f7 ae 3f bc 1d 10 37 bd c2 ad b1 3c 70 42 87 bd
       -0.01169943 -0.0446931 0.0216893 -0.06604469
0003c0 a1 b0 08 bc de 69 cc bc 3d 2f e9 bc 81 b3 e7 bb
       -0.008342893 -0.024952825 -0.028464908 -0.007070959
0003d0 21 fe 02 3b 52 cc 18 3c 17 90 1a 3d 46 07 96 3c
       0.0019987898 0.0093260575 0.03773507 0.018314015
0003e0 a2 e6 19 bd 75 10 31 3c d9 46 90 3d a5 b7 62 3d
       -0.037573464 0.010807146 0.07044763 0.05535092
0003f0 18 69 d3 3d 74 23 d4 3c c7 e2 d1 bc 53 c3 a9 3c
       0.103227794 0.025895812 -0.025620831 0.02072302

model.0.bias f4 [256]
000000 00 7f 68 3d 9a 17 20 bd 3d 30 31 bc c1 f1 06 3d
       0.05676174 -0.03908501 -0.010814724 0.0329454
000010 8d c2 0b bd a1 36 61 3d 21 55 77 3d 87 0f 94 bc
       -0.034121085 0.05498374 0.06038392 -0.01807381
000020 37 9e e4 bc 70 49 6e 3d 81 39 c5 bc 6e 2b 6b 3d
       -0.027907474 0.058175504 -0.024075272 0.057414465
000030 fc 33 a3 3d 3e 3c 9d 3d ea c7 9a 3c 48 54 1e 3d
       0.079688996 0.07677506 0.018894155 0.038654596
000040 b9 14 a4 3d 68 a0 98 3d 1d c8 a3 3d 53 2a 75 3d
       0.08011765 0.0745247 0.07997153 0.059854817
000050 f5 b2 77 3d 12 bf 14 bd 79 60 c2 3c ac 40 aa bc
       0.0604734 -0.03631503 0.023727642 -0.020782791
000060 ee 9e 13 bd a3 d3 06 bc 7d 91 c0 3d fc 9a 65 3d
       -0.03604024 -0.008229169 0.0940275 0.056056008
000070 59 0d 69 3d 94 6c 4f bc 36 00 8d 3d d6 7e 13 3d
       0.056897495 -0.012660164 0.06884806 0.036009632
000080 4d ef 3d 3d a0 3f 98 3c 0c 9e b5 3d a9 cf 1b bc
       0.046370793 0.018585026 0.08868036 -0.009509959
000090 25 b5 1d 3d 92 f8 18 bb 91 14 1c 3d b3 fe 17 3d
       0.03850283 -0.0023341519 0.03810555 0.037108134
0000a0 48 d5 a9 3c 68 a6 e7 3c e0 4a 7d 3d 9d c8 05 3a
       0.020731583 0.02827759 0.061838984 0.0005103441
0000b0 4a 54 2b 3d dd a6 ae 3d a7 7b 13 ba 6f 27 a4 3b
       0.04182843 0.085279204 -0.00056260306 0.0050095837
0000c0 db fe df bb 01 3c 4e 3d 83 f1 56 bc 47 23 8c 3d
       -0.006835801 0.050350193 -0.013119104 0.06842666
0000d0 72 2b 63 3d be ee 30 3d e6 95 a6 3d a8 2c a0 3d
       0.055461355 0.043196432 0.081340596 0.078210175
0000e0 b3 65 4d 3d ae e0 9f 3b 07 91 9c bc 81 13 5e 3d
       0.050145816 0.004879079 -0.019112123 0.05421782
0000f0 ca 28 0a bc 66 53 2d 3d 71 81 80 3d dd 21 74 3d
       -0.008432576 0.042315863 0.06274689 0.059602607
000100 09 77 90 3c 26 35 7b 3d b3 a7 9c bc a6 62 c4 3d
       0.017634885 0.061329983 -0.019122934 0.09589128
000110 b3 2e 97 3c 67 cb 00 3d a1 a4 0b ba 05 b1 60 3d
       0.018454885 0.03144398 -0.0005326961 0.05485632
000120 09 fa 28 3d 3e c5 df bb a9 3c 92 3d fb 3c 65 3b
       0.041254077 -0.006828933 0.07140476 0.0034978974
000130 e3 d4 e8 3c 8b 95 ab 3c bb b5 8f 3d 36 4e ba 3c
       0.028421825 0.020945331 0.07017084 0.022742372
000140 2a b7 ca 3d 5c 4d 10 3c 84 d3 bf 3c 62 00 b7 3c
       0.09898217 0.008807506 0.023416288 0.02233905
000150 c2 d7 83 bc b7 2e 8d bc 52 71 48 3c 71 21 e4 3c
       -0.016094092 -0.01723419 0.012234049 0.027847977
000160 fd 7e b5 3d 22 b0 83 3d c0 75 02 bd af 67 ab 3b
       0.08862112 0.06430079 -0.031850576 0.005230866
000170 de 2d 7e bb a8 18 2b 3c 7b 9b 2c 3d 78 53 3a 3d
       -0.0038784663 0.01044289 0.042140465 0.04548976
000180 c7 3b 42 bd 58 b2 1c 3d 12 46 60 3d 6e 1a 04 3d
       -0.04742029 0.03825602 0.054754324 0.032251768
000190 21 15 0c 3d 54 3c 43 3c 0c 84 92 bb dc 69 db bc
       0.034199838 0.011916239 -0.0044713076 -0.026783876
0001a0 71 f5 02 bc e4 1e 92 3d b7 07 e6 bb f4 eb 8c 3c
       -0.007993088 0.07134798 -0.0070199626 0.017202355
0001b0 8a b0 28 3d 47 a2 49 bc 26 55 cd 3c 9d dc 84 bc
       0.041183986 -0.012306756 0.025065016 -0.016218478
0001c0 ff 86 5d 3d 74 5a 38 3d 38 56 e1 bc 65 03 ed bc
       0.05408382 0.045008138 -0.027506933 -0.028932283
0001d0 fb 27 9a 3d ca 51 ab 3d 04 37 c9 3b 01 7f 7e 3d
       0.07527157 0.083652094 0.0061405916 0.06213284
0001e0 06 e5 32 3c 9b ad 84 3d bd a4 55 3d 64 34 7d 3d
       0.010918861 0.06478425 0.05215906 0.06181754
0001f0 13 a6 1b bb 35 91 b1 3d 95 d2 a4 3c b7 3d 03 3d
       -0.002375011 0.08670274 0.020119945 0.032041278
000200 a6 3b 03 3d f1 d9 87 3c 76 4e a4 3d 34 d0 51 bc
       0.032039307 0.016583415 0.08022778 -0.012805987
000210 15 8f 8c 3d 98 1c 6f 3d ec e6 6b 3d e8 d6 b7 3d
       0.06863228 0.05837688 0.05759327 0.08976537
000220 84 6c ce 3d 36 4f 58 3d 1b d3 f3 bc 21 96 5f 3d
       0.100792915 0.052809916 -0.029763749 0.054586533
000230 b9 60 2d 3d cb c8 de 3b 08 ba 1d 3d 8c 44 72 3b
       0.04232857 0.0067988387 0.03850749 0.0036967127
000240 47 5d da bc 83 ae 89 3d ff 18 03 3c 6b b0 3e bc
       -0.026655806 0.067227386 0.008001565 -0.011638741
000250 dc 5e 2f 3d 72 53 4a 3d 30 f7 77 bc cd d4 cd 3d
       0.042815074 0.049395986 -0.015134618 0.10050354
000260 67 dd 31 3c 14 42 98 3d ea 1f 76 3c 18 ec dd bc
       0.010856009 0.074344784 0.015022257 -0.027090117
000270 1f f1 58 3b c2 db 6f 3d fd ea 65 3d d3 83 2b bc
       0.0033102704 0.058559187 0.056132305 -0.010468441
000280 de 93 49 bd 1d fd 68 3d 4b 44 84 3d b0 93 77 3d
       -0.049213283 0.056882013 0.06458338 0.06044358
000290 f5 dc 80 bb e8 88 82 3d 1d 88 41 3b 0e 55 0b bc
       -0.00393259 0.06373769 0.0029530593 -0.008504165
0002a0 ea 39 44 3c 37 9d c4 3c 6f e9 85 3d 7f be 83 3d
       0.011976698 0.024000747 0.065386645 0.064328186
0002b0 62 70 94 3c 9d 00 8a 3d a5 69 7f 3d 89 9a bd 3c
       0.018119995 0.06738398 0.06235661 0.023144977
0002c0 31 66 d5 bb 4d f7 c5 3c be 87 c5 bc a1 5e 44 3b
       -0.0065124263 0.024165774 -0.024112578 0.002996363
0002d0 58 a4 8c 3d 65 39 50 bc f4 a6 92 bc bb f2 6d bb
       0.068672836 -0.012708996 -0.017901875 -0.0036308009
0002e0 f4 1b 52 3d 38 f8 97 bb 2f 7a 98 3c 37 cd 0f 3d
       0.05129619 -0.0046377443 0.01861295 0.035107818
0002f0 ee 7c f3 ba eb fc 14 bd ea 95 a1 3d 77 b4 ef bc
       -0.0018576661 -0.036374014 0.07889922 -0.029260857
000300 88 81 c3 bc c9 0c ca 3d 8c 17 d5 3c e2 2d 4c 3d
       -0.023865476 0.0986572 0.026012205 0.049848445
000310 7d 01 18 bd 69 d1 24 3d cb bf d8 3c e6 fb 17 3d
       -0.037110794 0.04023877 0.026458642 0.037105463
000320 e1 91 68 3d d3 c8 40 bc be a0 49 3d c6 dc 8b 3d
       0.056779746 -0.01176663 0.04922556 0.068292186
000330 11 df 51 bd 98 03 64 bd f2 68 66 3c a5 da d4 3a
       -0.051238123 -0.05566749 0.014063107 0.0016239478
000340 9c db be bc 38 9d 8e bb f6 00 b5 3d 98 ef 38 3d
       -0.023298077 -0.004352238 0.08838074 0.04515037
000350 95 c7 f3 bb d9 50 0d bd af 56 61 bc 70 fe e6 3c
       -0.0074395635 -0.03450093 -0.013753577 0.028197497
000360 a3 11 50 bb cf 8b 75 3d a0 9a 6c 3d 65 7e 54 3d
       -0.0031748794 0.059947785 0.05776465 0.05187835
000370 e4 6a 8d 3c b4 9f 28 3d 87 d6 31 3c e8 2b 4e 3d
       0.017262883 0.04116793 0.01085437 0.05033484
000380 03 cb 07 3c 09 09 48 3c 4f c8 80 3c 40 47 2b 3d
       0.008288148 0.012209185 0.015720515 0.041815996
000390 5a 1c 6c 3d 1f 1b 53 3c 47 a6 8d 3d 18 30 8e 3d
       0.057644226 0.012884884 0.069164805 0.06942767
0003a0 f4 64 3c bd ca c3 3d 3d 91 0e d6 3c b6 01 02 bc
       -0.045994714 0.046329297 0.026129993 -0.007934978
0003b0 38 7d b7 3a 6a 0b e6 ba c5 b7 f6 3c 16 43 c8 3d
       0.001399911 -0.0017551009 0.030116925 0.097784206
0003c0 b8 95 52 3d 73 32 ad 3c c6 5d 9a 3d 7c 7a c1 3d
       0.051412314 0.02114222 0.07537417 0.0944719
0003d0 65 8a 13 3d c8 7b 2a bd e8 27 53 3c 8f a7 e7 3c
       0.036020655 -0.041621953 0.012887932 0.02827814
0003e0 51 2b bb 3c 33 a6 b8 3d c4 39 69 bd 14 73 0f 39
       0.022847803 0.09016075 -0.056939855 0.00013680413
0003f0 ad 34 a6 bb 39 9f 32 bd 6e 96 d2 bc 9d 96 70 bb
       -0.0050721974 -0.043608878 -0.025706496 -0.0036710866

model.3.weight f4 [128, 256]
000000 89 6a eb 3c 19 7d 87 bd 6a a3 9a 3d ae c0 3f bd
       0.028737323 -0.06615657 0.075507 -0.046814613
000010 74 7e 53 bd 8e 0f a4 bc a4 f2 86 bc a3 56 52 3c
       -0.051634267 -0.020026948 -0.016473122 0.012838039
000020 e2 eb f4 bc 87 b0 09 3c 35 25 74 bd 5a b9 a3 3d
       -0.029897634 0.008403904 -0.059605796 0.079943374
000030 0c e1 71 3c d5 2b 34 3d d7 51 5d bd 74 8c 22 3d
       0.014763128 0.043987114 -0.054033127 0.039684728
000040 8e c2 4a 3d 38 ce 67 bc 22 0f be bc 20 30 29 bc
       0.049501948 -0.0141482875 -0.023200575 -0.010326415
000050 22 de 17 bc f2 26 5b bd 18 99 7e 3d ae db 1d 3d
       -0.009269269 -0.053503938 0.06215772 0.03853958
000060 b7 1a 77 bc 9e 75 c3 3c f3 80 1b 3c 84 b6 bc 3c
       -0.015082053 0.023859795 0.009491193 0.023036249
000070 1d 21 78 3d fc d6 51 bd b6 13 c4 3b 9a fd 63 3c
       0.060578454 -0.051230416 0.005983795 0.013915444
000080 23 06 3c 3c d4 0a f2 bc d6 33 bb bd cc 5a 25 3d
       0.0114760725 -0.029546179 -0.09140746 0.040369794
000090 c5 78 14 bd 4e ef 6c bd 15 9b c4 3b 26 86 05 3d
       -0.036247987 -0.057845406 0.0059999325 0.032598637
0000a0 ee fe db bc db 2f 44 3d 56 ac 18 bd a5 6f 90 3c
       -0.026854958 0.0478972 -0.037273727 0.017631361
0000b0 a5 55 16 3d 7c f9 21 bd 31 d6 a9 bd 34 fd 21 bd
       0.03670277 -0.039544567 -0.08292807 -0.039548114
0000c0 5f df af bd f1 c2 af bc 1d c9 b0 bc 61 56 a0 3d
       -0.085875265 -0.02145526 -0.021580273 0.078289755
0000d0 85 62 97 bd dc bf fc 3c 08 a8 9a bc f0 e8 55 3c
       -0.07391838 0.030853204 -0.018878952 0.013056025
0000e0 5e e6 07 3d dc 54 78 3d cd 03 0f 3c 52 4d f3 bc
       0.03317868 0.060627803 0.0087289335 -0.029699955
0000f0 6c 0d c8 3d bd c5 66 bc 9c fb e4 bb 76 f6 3e 3d
       0.09768185 -0.01408523 -0.006988002 0.046621762
000100 bb 22 2d bd 7c 67 8d 3c a0 5f bd 3c a8 6b 0e bd
       -0.04226945 0.01726126 0.023116887 -0.034770638
000110 80 b3 dc ba bf b7 8e 3d cb fe c3 3d d3 ac 7d 3c
       -0.0016838163 0.069686405 0.09570082 0.015483099
000120 4e 9f dc 3b a0 b6 d0 3c cd f0 45 3c 18 67 a7 3d
       0.006732858 0.025477707 0.012081337 0.081739604
000130 4d c2 0a 3d cf 18 5e 3c 4d 36 a8 bc 61 c1 0c 3c
       0.033876706 0.0135557195 -0.020533705 0.008591027
000140 ed e4 87 bc ca 45 47 bc 1e 3c 8f 3b 61 ed 18 bc
       -0.016588653 -0.012162635 0.00437118 -0.009333939
000150 ab fd 02 3c 3d a8 95 3d 27 90 dd 3a 31 16 d3 3c
       0.0079950495 0.073074795 0.0016903923 0.025767418
000160 a9 b2 ba 3a e3 75 14 3d 29 ea 7d bc 38 16 aa bd
       0.0014243919 0.036245238 -0.015497723 -0.08305019
000170 8c 81 c4 b9 40 8a 01 bd 2c 49 d4 bc 0b 87 5f 3d
       -0.00037480553 -0.031625986 -0.025913797 0.054572146
000180 92 44 90 3d dc c5 f8 3b 6e fe 8c bc 8e 01 bc 3d
       0.07044329 0.007591946 -0.017211165 0.09179984
000190 b6 75 9c bb 57 ad 1d bd e1 87 55 3c 20 5d c1 3c
       -0.0047747744 -0.038495388 0.013032884 0.023603976
0001a0 81 f3 8d 3d b7 0b 2d bc c9 07 93 bd 63 d4 75 bd
       0.0693121 -0.010561875 -0.07179219 -0.060017
0001b0 5e 99 8d bd d6 ee df 3c 99 28 5f 3d d4 b2 38 3d
       -0.06914018 0.027335566 0.054482076 0.04509242
0001c0 01 76 30 3b 4e 2e c5 3d 6e 8f d8 bc 4d 99 a8 bd
       0.0026925805 0.096279725 -0.02643558 -0.08232365
0001d0 65 27 b6 bc 3e 87 19 3c 05 6b 11 bd 9e 08 ad ba
       -0.022235582 0.009370623 -0.035502452 -0.0013201421
0001e0 41 bf 6c bc f9 1b 15 bd 68 97 4c 3d 28 41 49 3d
       -0.014449895 -0.03640363 0.04994908 0.049134403
0001f0 ff 7f 73 bd 85 b5 37 bd 56 57 49 3d d8 7a 74 bd
       -0.05944824 -0.044850845 0.049155556 -0.059687465
000200 fc 89 ab bd 48 58 3d bd 18 ee 41 bd a3 1f 8b 3c
       -0.08375928 -0.04622677 -0.047346205 0.016982859
000210 87 69 57 bd f1 ff 9a 3d 75 41 ab 3c 0a b0 7e bc
       -0.052590873 0.07568348 0.020905236 -0.015544901
000220 9e 8a 7b 3d 0f 86 ea bc ad e5 90 bd 6b 66 ee 3c
       0.061411493 -0.028628377 -0.07075057 0.029101571
000230 89 ff f5 3c b6 a5 c1 3d ea d8 5b 3d 85 25 32 bd
       0.030029075 0.09455435 0.053673662 -0.043492813
000240 90 4c 9d 3c 68 a8 d8 3c 90 9d 91 bc e9 68 2c bc
       0.019201547 0.02644749 -0.017775327 -0.010523059
000250 68 00 cc 3d 63 59 d3 bb 0d c3 27 bc 34 3d e7 bc
       0.09961015 -0.0064498647 -0.010239375 -0.028227426
000260 5b 5a 06 bd 03 1f 82 bd 09 93 44 3d cf 1d a9 3c
       -0.032801013 -0.06353571 0.047991786 0.020644097
000270 0d f4 8a bd 69 1b a5 bc 9e 34 05 3d ad 16 18 bd
       -0.0678483 -0.020154672 0.032520883 -0.037131
000280 8e 2b 5f bd d0 53 55 bd 28 0b 25 3d 4b 6d c0 3b
       -0.054484896 -0.052081883 0.040293843 0.0058724037
000290 07 b7 75 3d 28 52 71 bb a9 ed 7f 3d 74 00 5d 3c
       0.059989 -0.003682265 0.06248251 0.013488878
0002a0 ef d0 9f 3d c2 7a 1d bd ba 65 db bc 7c e8 06 3c
       0.07803523 -0.03844715 -0.026781905 0.0082341395
0002b0 2c 33 9b 3d 18 61 a8 3c 70 d9 dd bd 48 25 70 bb
       0.0757812 0.02055411 -0.108324885 -0.0036643315
0002c0 8e 0c 12 bc b3 83 af 3b 40 28 cf 3d 30 5a db bb
       -0.008914126 0.005356276 0.10115099 -0.006694101
0002d0 bb d7 5a 3d a4 64 55 bc 4c e4 a1 3d 89 15 70 bd
       0.053428393 -0.013024483 0.07904872 -0.058614288
0002e0 f7 c2 cc bb 99 d0 ae 3d 63 6e 89 bc ad 98 57 3c
       -0.0062488276 0.085358806 -0.01677627 0.013158959
0002f0 da 4f df ba d7 53 83 bd a8 d8 a8 bd fa 68 a6 bd
       -0.0017037347 -0.064124756 -0.08244449 -0.081254914
000300 01 76 3d 3d 0b 35 07 bd a6 3b 02 3d 1c a9 bb 3c
       0.046255115 -0.03300957 0.031795166 0.022907786
000310 d0 86 d1 3c fb 31 56 3b 7e 36 b1 3c 1d 66 34 3d
       0.025576979 0.00326836 0.02163243 0.044042695
000320 ad ca b6 bc 46 c2 8d 3d 2d 5e 82 bd 0b 1f 24 ba
       -0.02231344 0.0692182 -0.06365619 -0.0006260729
000330 45 46 07 bd d2 b4 b5 3c 40 0f 08 bd f6 0c c0 bc
       -0.033026 0.022180948 -0.03321767 -0.02344368
000340 d3 1e 18 bd d9 95 0c bc 57 68 24 3c b9 7a 9c bd
       -0.03713877 -0.008580648 0.010034642 -0.07640595
000350 67 86 a7 3b 5a 0d 1a 3c 7e 97 75 3d 1f 32 a1 3a
       0.0051124576 0.009402597 0.059958927 0.0012298262
000360 f8 7f 77 bd ab fa 3a bd 88 73 7c 3d 6a 03 3a 3d
       -0.060424775 -0.04564921 0.061633617 0.045413412
000370 af de 0d 3d 09 e9 9d bc 8a b1 6a bd 24 ca 87 bd
       0.034636196 -0.019276159 -0.05729822 -0.06630352
000380 c0 dc bb 3c ee 7d a3 bc be d3 61 bb fb 0d 56 bb
       0.02293241 -0.019957509 -0.0034458484 -0.0032662142
000390 47 ee 6c 3b 7c 5d 75 3d 74 54 cc 3d 23 8d a4 3d
       0.0036152767 0.059903607 0.09977046 0.08034732
0003a0 ee d3 52 3d 19 c8 90 3a d0 a3 70 bb 73 63 02 3a
       0.051471643 0.0011045962 -0.0036718734 0.00049739255
0003b0 6c 41 92 3d 20 03 3f 3d 23 d7 14 bd dd ea aa 3d
       0.071413845 0.04663384 -0.036337983 0.08345578
0003c0 01 36 c9 3d 89 e5 9c bc 6d 26 ae ba 72 e7 93 3a
       0.098247536 -0.01915242 -0.0013286598 0.0011284186
0003d0 a3 a3 99 3d 92 af 23 3d 38 fa 4a bd 1a 7a ba 3b
       0.07501914 0.03996236 -0.049555033 0.005690825
0003e0 43 b4 bc bc 23 78 8f bd 37 f9 d0 bc 30 9a a6 3d
       -0.023035174 -0.07005336 -0.02550946 0.08134878
0003f0 75 38 40 bd 10 30 b8 3c b6 3a 32 bd f7 c1 b6 3d
       -0.04692884 0.022483855 -0.043513022 0.089237146

model.3.bias f4 [128]
000000 bf c2 3e 3d 19 74 87 38 57 3e a0 3d b9 da 3c 3d
       0.046572443 6.4589265e-05 0.078243904 0.046107028
000010 d6 93 fa bb 1e d8 12 bd 34 6c 94 3d 93 75 b0 bc
       -0.007647018 -0.035850637 0.072472006 -0.021540439
000020 d1 f5 57 3c bd a7 a7 3d 49 3b 55 3c 13 48 9d 3d
       0.013181166 0.081862904 0.013014623 0.07679763
000030 ec 9b f1 3c 5b 6a 8c bc 24 63 70 bd d1 db 1b bc
       0.029493295 -0.017140558 -0.058688298 -0.0095128575
000040 c7 7b da bc aa 0f 82 bc b2 36 27 3d 7d 0f b7 3c
       -0.02667035 -0.01587661 0.040823646 0.022346253
000050 e3 8d 1d 3d 9e b9 bb 3c 09 2b 7c bc 65 cd 44 3d
       0.03846539 0.022915658 -0.01539112 0.048047442
000060 23 70 78 3d 0f ec 25 3d d5 bc 73 3d a5 87 43 3d
       0.060653817 0.040508326 0.059506256 0.047736783
000070 1d ea 85 bc fb db 08 3d 5a 7c 2a bc 9e a9 8b 3d
       -0.016346985 0.033412915 -0.010405624 0.06819461
000080 b1 e6 08 3d 6b 49 06 3d 34 85 84 3d 69 e1 88 3c
       0.03342313 0.03278486 0.06470719 0.016709046
000090 93 b5 91 3a db 1d 0d 3d c9 fb a1 3d 51 f3 a4 3d
       0.0011116735 0.0344523 0.07909352 0.080542214
0000a0 d3 68 fb 3c 32 75 c0 ba cc e2 8d 3c d9 fc 5e 3d
       0.030689633 -0.0014683364 0.01732006 0.054440353
0000b0 ca d0 6b bc fb ca be 3c 15 11 d0 3c 9e d8 63 bc
       -0.014393041 0.023290148 0.02539877 -0.013906626
0000c0 85 df 87 3c fb ee 04 bd 99 65 0b bd e6 ab 0f 3b
       0.016586075 -0.032454472 -0.034032438 0.0021922528
0000d0 c4 95 c1 3c 8e ef 71 3c d9 c3 ff 3c a5 3d 62 3d
       0.023630984 0.014766587 0.031221317 0.05523457
0000e0 4a d2 de 3c df f1 80 3c f7 10 2d 3d f1 c7 3b bd
       0.027199883 0.015740333 0.042252507 -0.045844976
0000f0 96 34 37 bd d4 19 11 3d b1 31 85 3d e1 1f 56 3d
       -0.044727884 0.035425022 0.065036185 0.052276496
000100 c7 20 01 bb eb d7 99 3d 72 d8 58 3d d2 af e5 bc
       -0.0019703375 0.07511886 0.052940793 -0.02803794
000110 dd 7c 81 3d ea 48 e1 bc 11 c6 28 3d 90 78 c1 3d
       0.06322644 -0.027500588 0.041204516 0.094468236
000120 09 4d e4 ba 2b 00 87 3d ba 0f e5 bc 89 90 87 bc
       -0.0017417978 0.06591829 -0.0279616 -0.016548412
000130 47 ab 62 3c 84 a5 36 3d 48 39 84 3c 1d 25 1c 3c
       0.013834781 0.04459144 0.016140595 0.009530333
000140 7a a6 9c bb 1c 0b 84 3d 43 21 0b 3d 53 d8 b1 3c
       -0.0047805877 0.064474314 0.033967268 0.021709597
000150 8e 79 61 bb 50 ec 6b 3d 80 29 ae bc b6 30 1f bd
       -0.0034404728 0.057598412 -0.021260023 -0.038864814
000160 c5 2a b5 bc b6 db 4e 3c 75 bd 23 3c 5d 8b fd bc
       -0.02211512 0.012625625 0.009993901 -0.030950243
000170 0d 23 04 3d 19 35 81 3d df de 8d 3d bf 59 ac bc
       0.03225999 0.06308956 0.06927275 -0.021038888
000180 da b8 b1 3a 8a f7 30 3d b1 e4 17 3d 0a b6 7c 3d
       0.0013559118 0.04320482 0.03708333 0.061697043
000190 75 0f 95 3d 40 af 08 bc 60 16 f2 3c 69 7f b2 bc
       0.07278339 -0.008342564 0.029551685 -0.02178927
0001a0 fc 3f 60 3c 50 4a 94 3d a6 81 0e 3d b6 3d fe 3b
       0.01368713 0.072407365 0.03479161 0.0077588214
0001b0 f4 04 8d 3d 48 d4 b5 3d 1c 69 fc bc 24 da 39 3d
       0.0688571 0.0887838 -0.030811839 0.04537405
0001c0 7d 41 23 3d 1e b2 15 bd 21 4b 8d 3d 31 fc df bb
       0.039857376 -0.03654682 0.06899095 -0.0068354835
0001d0 65 39 80 3d 15 a3 41 3d c7 cc 19 bc ba 77 6a 3b
       0.06260947 0.047274668 -0.009387202 0.003577693
0001e0 bb 3d 64 3d ac 34 f3 3c 75 dd 2d 3c 6c b2 6d 3c
       0.055722933 0.029688202 0.0106118815 0.014507871
0001f0 a9 3e 85 3d c3 2c c1 bc e9 c2 bc 3d 3f f9 8f bd
       0.06506092 -0.023580914 0.09216864 -0.07029962

model.6.weight f4 [3, 128]
000000 a6 13 0e 3e 28 58 d4 bd 5f 33 a6 bd 48 f1 ff bd
       0.13874683 -0.10368377 -0.08115267 -0.124971926
000010 01 bb ef bd e1 71 37 3c 14 5b 4f bd 33 59 cc bd
       -0.1170559 0.011196584 -0.05062397 -0.09977951
000020 9d b6 24 3d bc 7b 02 be d2 5a a9 bd 5f 51 c2 3d
       0.040213216 -0.12742513 -0.08269276 0.094881766
000030 bc 0a ff bd df 96 1b be 3c 43 7e 3d 85 0f d7 3d
       -0.12453219 -0.15194272 0.06207584 0.10501007
000040 f7 b1 06 3e 0d d6 98 3c f9 b3 e2 3d 3b b7 b4 3d
       0.13153826 0.018656755 0.11069483 0.08824011
000050 80 83 74 bd a2 28 58 bd 44 ec 13 be 49 2a eb bd
       -0.05969572 -0.052773125 -0.14445597 -0.11482675
000060 49 53 a9 3c 21 c2 29 3d 51 39 f2 bc 8a 1b 01 3e
       0.020669596 0.0414449 -0.029568346 0.12608162
000070 db dc aa 3c 29 14 59 3d 7c c7 0d 3e 6d 97 c7 bd
       0.020857265 0.05299774 0.13845628 -0.09745679
000080 da e1 98 bd 44 96 0d 3e c6 42 8b 3c 82 e5 b2 3d
       -0.07464953 0.13826853 0.016999613 0.087351814
000090 f8 5e 77 3d e8 6f f0 3c a9 fe c2 bd 4d dd f4 bb
       0.060393304 0.029350236 -0.09521229 -0.00747267
0000a0 f7 b4 21 3d f9 dd 0d be 47 9f 3e bd b1 ad 27 3d
       0.039479222 -0.13854207 -0.046538617 0.04093713
0000b0 42 3b 58 3d 51 ae 00 be 48 82 54 bd b5 cc 6a bd
       0.052790888 -0.12566496 -0.05188206 -0.05732413
0000c0 af f9 d1 3d 9e 57 04 3e 79 46 b9 bb 51 60 8c 3d
       0.102527015 0.12924048 -0.005654153 0.068543084
0000d0 e9 1b cb bd 67 3c f2 3d 93 76 9f bd 3f 84 7f bd
       -0.09917433 0.11827927 -0.07786288 -0.06238198
0000e0 4a bd e6 bc d3 6f 7e bd f1 a6 07 be 70 4f ea 3d
       -0.028166432 -0.062118363 -0.13247277 0.11440933
0000f0 3a af a9 bd 5f 0d 8c bd c5 a6 90 bd 73 cb 55 3d
       -0.08285375 -0.06838488 -0.07063059 0.052195977
000100 cd 40 82 3d 4b e3 2a bd a3 df d5 3d 87 29 0f 3e
       0.06360016 -0.04172067 0.10443046 0.13980685
000110 20 de 95 bd a3 dc 95 3d db 62 16 be 12 4b 00 be
       -0.073177576 0.07317474 -0.14686148 -0.12528637
000120 77 10 9c 3d 17 0f ee bd 86 b4 98 3d cc 06 e5 bd
       0.07620328 -0.11623972 0.07456307 -0.11182937
000130 a8 2d 71 bd d9 af f9 3c d6 35 81 bd 46 db fa bd
       -0.05888143 0.030479359 -0.063090965 -0.12248854
000140 36 7c d0 3d 19 ec 26 bd 2f e2 55 bd 96 82 f7 bd
       0.10179941 -0.040752504 -0.05221766 -0.12085454
000150 c3 4e 86 3d fa 11 9d 3d 2e 9a 9b bd c6 b1 c7 3d
       0.06557991 0.076694444 -0.07597767 0.097507045
000160 4f 6b 08 3e 81 17 10 be 42 c1 56 3c c2 e9 0e 3d
       0.13322185 -0.14071466 0.0131076 0.034890898
000170 75 f4 fd 3d f6 18 59 3c b7 88 e9 3d 3d 45 8e bd
       0.12400142 0.01325058 0.114030294 -0.069468
000180 7e a1 98 bd 03 d7 6b bc 66 ae 0c 3e 02 47 dc 3d
       -0.07452677 -0.0143945245 0.13738403 0.10755731
000190 ef 8b ff bc 8e b4 de bd 82 d9 50 bd 7a 32 16 be
       -0.031194655 -0.10874282 -0.05098868 -0.14667693
0001a0 f0 63 fd bd e6 7d b6 3d 8b e2 92 bd 25 02 35 3d
       -0.12372577 0.08910732 -0.07172116 0.0441915
0001b0 5a 51 06 3e e2 69 0f be 0e 00 16 3e e6 3b dc 3d
       0.1311697 -0.14005235 0.14648458 0.10753612
0001c0 7e 8b 0d 3e 77 c3 c6 bd e4 fb ee bd b3 d4 8f 3d
       0.13822743 -0.09705251 -0.11669138 0.07022991
0001d0 3c 1d e0 bd 7c 00 09 be 29 9b f3 3d 5f c0 a2 bd
       -0.10943076 -0.13379091 0.11894829 -0.07946848
0001e0 5d e4 c1 bd e4 fd 97 bd b6 e3 bb bc 95 7d bf bd
       -0.09467385 -0.07421473 -0.02293573 -0.09350125
0001f0 f1 0a 05 be bf 1e 1d 3e 1f 68 87 bd 74 17 14 3c
       -0.12992455 0.1534376 -0.066116564 0.009038795
000200 aa 16 08 be 28 cf 5a bc 22 6d bc bd 0d cf 09 be
       -0.13289896 -0.013355054 -0.09200503 -0.1345789
000210 f8 2e 4d 3d dd 82 e1 3d 06 ed ee 3d ab 8d 15 3b
       0.05009362 0.11011288 0.116663024 0.0022820036
000220 61 63 94 3d 74 05 06 be aa 3a c9 3d 81 08 ed bd
       0.072455175 -0.13088018 0.098256424 -0.115738876
000230 f1 80 ca 3d 7d 32 a1 3d b2 99 bf bc ae 5f e0 bd
       0.09887875 0.07870958 -0.023388717 -0.109557495
000240 a8 ec bc bd ef 25 05 3d 19 31 10 bd b9 75 c9 bd
       -0.09224826 0.03250688 -0.035203073 -0.09836907
000250 48 4c 09 3e 12 db e6 3d 19 d6 67 3c 24 d2 d5 3d
       0.13408005 0.11272253 0.014150166 0.10440472
000260 92 5a f7 bd 79 61 11 be f3 06 02 be 9d f5 f7 bd
       -0.12077822 -0.14197339 -0.12697963 -0.12107394
000270 f9 47 1d 3c ad 9e 5f bb 59 f1 05 be dd 7b 03 3e
       0.009599679 -0.0034121678 -0.13080348 0.12840219
000280 16 c9 f4 3d 7b f0 fe bd 75 93 19 be 35 13 12 3d
       0.119524166 -0.12448212 -0.14997657 0.03566285
000290 20 2e df bd e3 83 44 3b 24 e4 b1 bd 52 95 1c bd
       -0.108974695 0.0029985837 -0.086860925 -0.03822834
0002a0 ba 24 52 3d f6 6a 0a 3e 05 49 84 3d b5 6b 9d ba
       0.051304556 0.13517365 0.0645924 -0.0012010249
0002b0 39 45 ec bd 8f c9 00 3e 20 6e 29 3d b2 c8 24 be
       -0.11536641 0.12576889 0.04136479 -0.16092184
0002c0 5a 17 a2 3c f3 a4 5c bd e1 94 ee 3d dc 58 f2 bd
       0.019786526 -0.053868245 0.1164949 -0.11833355
0002d0 17 5e be 3d 0e 4d 0a be 8f 0c bc 3d 71 d6 d8 3d
       0.0929529 -0.13505957 0.09182083 0.105877765
0002e0 6b 22 04 3e 74 a0 9b bd 4c bc fa bd 07 f0 ae bd
       0.12903754 -0.075989634 -0.12242946 -0.08541875
0002f0 72 60 b1 3d b3 d1 0e be ac 99 7a bc 3e 1d ca 3c
       0.086609736 -0.13947181 -0.015295427 0.024672147
000300 e8 7b 07 be bb 89 d5 3d 4a f8 13 bc de 08 09 be
       -0.1323086 0.104266606 -0.009031365 -0.13382289
000310 8b 5e da 3d 33 0f 41 bd 04 9c 99 3d 0c cf 11 be
       0.10662564 -0.047133636 0.07500461 -0.14239138
000320 ab 6f e5 bd 09 86 98 3d f9 10 cd 3d 26 58 16 3e
       -0.112029396 0.0744744 0.10013003 0.14682063
000330 58 e6 46 3d dd 31 9f 3c ae fb f1 bd 12 c9 82 3d
       0.048559517 0.019432956 -0.11815582 0.06386007
000340 80 9f df bd 5c f7 b8 bd 82 02 e8 bd 8f 1b eb 3d
       -0.10919094 -0.09031555 -0.11328603 0.11479866
000350 56 ff d7 bc 25 98 8f bd b5 61 ac 3d 11 1c 17 be
       -0.02636687 -0.07011441 0.08417074 -0.147568
000360 c9 d6 66 bd 16 2a e4 ba 46 46 39 bb f1 80 9c bd
       -0.05635718 -0.0017407562 -0.0028270646 -0.07641781
000370 5f 23 5e bd 04 e0 c0 3d 11 1a 37 3d ee eb e6 3d
       -0.05423295 0.094177276 0.044702593 0.11275469
000380 c0 78 0b 3e 70 d4 0b 3e 6f 47 cf bd e5 f6 f2 bd
       0.13620281 0.13655257 -0.10121047 -0.11863498
000390 42 ef 2a bd 5a b1 13 3e ab 6d d1 3d e1 43 a1 3d
       -0.04173208 0.14423123 0.10225996 0.07874275
0003a0 a8 b7 19 be 58 02 c7 3d 96 7f 8b 3d 7e a8 6e 3c
       -0.15011466 0.09717244 0.068114445 0.014566539
0003b0 8d e4 6e 3d 5e a4 db bd 1b d3 0d be a0 3e ec bd
       0.05832343 -0.1072471 -0.13850062 -0.11535382
0003c0 82 cf b4 bd 79 f2 80 3d 45 ec c5 bd f8 36 b9 3d
       -0.088286415 0.06296248 -0.096642055 0.090436876
0003d0 2a 68 73 bd ba cb 8d 3d 31 2a c0 bd 62 24 7c 3d
       -0.05942551 0.069236234 -0.09383047 0.061558135
0003e0 4a e0 a7 3d 7c 9f 90 3d 55 53 0b 3e bf 28 06 3e
       0.081970766 0.07061669 0.13606007 0.13101481
0003f0 63 4e 0a be c2 84 03 be 7f a5 94 bd e2 c4 bd bc
       -0.13506465 -0.12843612 -0.072581284 -0.02316517

model.6.bias f4 [3]
000000 34 11 60 3d 38 be b3 bd d2 be 6e 3d
       0.054703906 -0.08776516 0.05828745
